llm_blackjack/deep_q_model.pth (torch, 71802 bytes, 6 tensors)

fc1.weight f4 [128, 3]
0	0x3eb9d27b	0.36293396
1	0x3e670ec8	0.22564232
2	0x3da0e2e4	0.07855776
3	0xbe82f88b	-0.25580248
4	0x3f013590	0.50472355
5	0x3f10e993	0.56606406
6	0xbe71c26a	-0.2360932
7	0xbd128340	-0.0357697
8	0x3e55e4dc	0.20888084
9	0xbedc409d	-0.43018046
10	0xbd08ae50	-0.033369362
11	0xbe345b30	-0.1761291
12	0xbee6e942	-0.45099837
13	0xbf0fb45f	-0.561346
14	0x3e022a14	0.12711364
15	0x3e9547e8	0.29156423
16	0xbdab9e88	-0.08379847
17	0xbeaffefc	-0.34374225
18	0x3e4d1769	0.20028462
19	0xbd1528fb	-0.036416035
20	0xbf03d417	-0.514955
21	0x3e9a2f1a	0.3011406
22	0xbf098a12	-0.53726304
23	0xbe80a4b0	-0.25125647
24	0xbd56e9a0	-0.052468896
25	0xbed357df	-0.41277978
26	0xbeb1a38b	-0.34695086
27	0xbba60800	-0.0050668716
28	0xbf0b0b06	-0.54313695
29	0xbe9e2f18	-0.30895305
30	0x3e89d232	0.2691818
31	0xbea81ef7	-0.32836124
32	0x3ed79104	0.42102826
33	0xbe661a5f	-0.22470997
34	0x3ef804d6	0.4844119
35	0x3e7ca75f	0.24673222
36	0xbeb673aa	-0.3563512
37	0xbea55607	-0.32292196
38	0x3e907ba0	0.28219318
39	0xbf001343	-0.5002939
40	0xbefe5bf8	-0.49679542
41	0x3c7ffd00	0.015624285
42	0xbf10b48a	-0.5652548
43	0xbee502c0	-0.4472866
44	0x3e45ecd8	0.1932863
45	0x3e21bf13	0.15795545
46	0xbef68d50	-0.48154688
47	0x3ed59a88	0.4171946
48	0xbf0bc386	-0.5459522
49	0xbd230810	-0.03980261
50	0x3e4c8158	0.19971216
51	0xbe351c33	-0.17686538
52	0x3e0722c7	0.1319686
53	0xbf0f40db	-0.55958337
54	0x3e8fc4c4	0.28079808
55	0xbebafdbb	-0.36521706
56	0x3e5102e9	0.20411266
57	0xbf129909	-0.57264763
58	0xbeecaaee	-0.4622416
59	0x3ebe773e	0.3720035
60	0xbe8983ff	-0.26858518
61	0xbe7e246e	-0.24818584
62	0x3cfb4b80	0.03067565
63	0x3e67690a	0.22598663
64	0xbe0b40ab	-0.13598888
65	0xbf257e7d	-0.6464613
66	0x3d2cfb4a	0.042231835
67	0x3e7462cc	0.23865813
68	0xbe895c23	-0.26828107
69	0x3e26fd23	0.16307501
70	0xbf126095	-0.5717862
71	0x3dd4fa4c	0.10399303
72	0x3ea52b73	0.32259712
73	0xbece5a33	-0.40303192
74	0x3f53efd1	0.82787806
75	0x3d579628	0.052633435
76	0xbe171874	-0.14755422
77	0xbf17ec82	-0.5934526
78	0x3e5e62c0	0.21717358
79	0xbe8b4580	-0.27201462
80	0xbf1d689e	-0.6148776
81	0xbbefe400	-0.007320881
82	0xbed9918c	-0.42493856
83	0x3d96f300	0.07370567
84	0xbf0bd33e	-0.54619205
85	0x3e4c76e8	0.19967234
86	0x3e985890	0.29755068
87	0xbe3ffd73	-0.18749027
88	0x3d3cceae	0.046095543
89	0x3e81299a	0.25227052
90	0x3ea40e60	0.32042217
91	0xbf0782ef	-0.52934164
92	0x3e514193	0.20435171
93	0xbf13395d	-0.57509404
94	0xbe2f27b0	-0.17104983
95	0xbe074864	-0.13211209
96	0x3da0afdd	0.07846043
97	0xbdaecacd	-0.08534775
98	0xbfa742c0	-1.3067245
99	0x3d881466	0.06644516
100	0xbec590df	-0.3858709
101	0x3ebd4ae3	0.36971197
102	0x3ef59183	0.4796258
103	0x3dd5b834	0.104355246
104	0xbf3cc001	-0.73730475
105	0x3e56d530	0.20979762
106	0xbe9493f0	-0.29019117
107	0x3c04c5a7	0.008103765
108	0x3eab5007	0.33459494
109	0x3e2c6ae8	0.16837656
110	0x3bcdb06c	0.0062771346
111	0xbdcf2b24	-0.1011565
112	0xbed4463f	-0.41459844
113	0x3ec3d936	0.38251656
114	0x3c5df400	0.013546944
115	0xbee7907a	-0.45227414
116	0xbd4d3390	-0.050098002
117	0xbef4b3e0	-0.47793484
118	0xbd6483a0	-0.05578959
119	0x3e27cd58	0.16386926
120	0x3eb7f2e1	0.3592749
121	0xbddb3c54	-0.10704866
122	0x3dbaaa0e	0.091144666
123	0x3eadd1eb	0.33949217
124	0x3c728478	0.014802091
125	0xbf1dbb5f	-0.6161403
126	0x3d6d5265	0.057939906
127	0x3ed06545	0.40702263
128	0x3e7882a1	0.24268581
129	0x3e296d32	0.16545561
130	0x3d8ca934	0.068682104
131	0x3e39bd05	0.18138511
132	0xbe5237ab	-0.20529048
133	0x3eb13c91	0.3461652
134	0xbe7c0de6	-0.24614677
135	0x3e614e5a	0.22002545
136	0xbe7274ee	-0.23677418
137	0xbe94e51f	-0.29081056
138	0xbf0caf84	-0.54955316
139	0x3db15548	0.08658844
140	0x3e114af4	0.14188749
141	0xbe9d78d5	-0.3075625
142	0x3ebe7be7	0.37203905
143	0xbef4f1d6	-0.47840756
144	0x3d154ebb	0.036452036
145	0x3d7fe05d	0.06246983
146	0x3f22384c	0.6336715
147	0x3e7eeacc	0.24894255
148	0xbf063c7d	-0.5243605
149	0xbf1add7d	-0.60494214
150	0xbe76d3dd	-0.24104257
151	0x3efc4dd5	0.4927813
152	0xbdb6cdfc	-0.08926007
153	0xbea1297c	-0.31476963
154	0xbe342a22	-0.17594197
155	0xbd707630	-0.058706462
156	0x3e16c9de	0.14725444
157	0xbd71f29f	-0.059069272
158	0x3d43c9d5	0.047799904
159	0x3eafabc8	0.34310746
160	0x3e9f5848	0.3112204
161	0x3d87e790	0.06635964
162	0x3e985599	0.29752806
163	0xbecd0d39	-0.4004915
164	0x3ebc6511	0.36795858
165	0x3e919a15	0.28437868
166	0xbebe281e	-0.37139982
167	0xbf2c954a	-0.674153
168	0x3d5b57e9	0.053550635
169	0x3a5c01f5	0.00083926256
170	0x3dd73762	0.1050861
171	0xbe136c32	-0.14396742
172	0xbf0136b5	-0.504741
173	0x3d0d5270	0.034502447
174	0xbeefafb1	-0.4681373
175	0x3ea5bf2e	0.3237242
176	0x3ee3fb00	0.44527435
177	0xbe47e62d	-0.19521399
178	0x3eabbf5a	0.33544427
179	0xbe1c2017	-0.15246616
180	0x3ddafac0	0.10692358
181	0x3dafeaee	0.08589731
182	0xbe9971eb	-0.29969725
183	0x3e45f34f	0.19331096
184	0xbeba67f0	-0.36407423
185	0xbf0b3e24	-0.54391694
186	0x3e3b9545	0.1831866
187	0x3e242da6	0.16033038
188	0xbebbc469	-0.36673287
189	0xbec6b4f6	-0.38809937
190	0xbef63592	-0.48087746
191	0x3f0123fc	0.5044553
192	0xbe47eafa	-0.1952323
193	0x3dafa968	0.085772336
194	0xbf03efba	-0.5153767
195	0x3db5af23	0.08871295
196	0xbf2710b2	-0.6525985
197	0xbf3f0579	-0.74617726
198	0xbd2948da	-0.041329242
199	0x3dd1a119	0.10235805
200	0xbd9e3222	-0.07724406
201	0x3e7a9813	0.24472074
202	0xbd3e1df6	-0.04641529
203	0x3e68cd67	0.22734605
204	0x3ec3e25d	0.3825864
205	0xbee040f6	-0.4379956
206	0xbe250b6a	-0.16117635
207	0x3d7453aa	0.0596501
208	0x3e14179e	0.14462134
209	0xbcdea237	-0.02717696
210	0xbe6d0379	-0.23145856
211	0x3ee5a6bd	0.44853774
212	0x3e2636d1	0.16231848
213	0x3e3de803	0.18545537
214	0x3e1895d0	0.14900899
215	0x3e9937d9	0.2992542
216	0x3eac9059	0.3370388
217	0x3e08f3c3	0.13374238
218	0x3ea91b69	0.33028725
219	0xbecca275	-0.39967695
220	0x3ed9a5f9	0.4250944
221	0x3e4092a8	0.18805945
222	0xbd5b1439	-0.053486083
223	0x3e893a4b	0.26802287
224	0xbf3fe125	-0.7495292
225	0xbde83f9c	-0.113402575
226	0xbd921dc0	-0.071345806
227	0x3e0ad43c	0.13557523
228	0x3e19bc30	0.15013194
229	0xbe8beae8	-0.27327657
230	0x3f6ea839	0.9322544
231	0xbee985fa	-0.45610029
232	0x3f0ffaff	0.56242365
233	0xbe0a31d6	-0.13495573
234	0x3ea8846c	0.3291353
235	0x3d8c1c1a	0.068412974
236	0xbf02689d	-0.5094088
237	0xbe3f94f8	-0.18709171
238	0xbd16ee00	-0.03684807
239	0x3e127308	0.14301693
240	0x3ec4b543	0.38419542
241	0xbeac6c11	-0.33676198
242	0xbce670d1	-0.028129967
243	0x3dde559b	0.10856172
244	0x3eb77deb	0.35838255
245	0xbeab2664	-0.33427727
246	0x3deeddec	0.11663422
247	0xbe974c6c	-0.29550493
248	0x3d85dbb5	0.065360464
249	0xbcf945c0	-0.030428767
250	0xbe7420cc	-0.23840636
251	0xbeec1b52	-0.46114594
252	0xbedff5e1	-0.43742278
253	0x3e5e4fb9	0.217101
254	0xbeb3c724	-0.3511287
255	0xbeddc7fe	-0.43316644

fc1.bias f4 [128]
0	0x3e8f1b22	0.27950388
1	0xbf135eb4	-0.5756638
2	0x3e9e2422	0.30886942
3	0x3e321b30	0.17393184
4	0xbead8f94	-0.33898604
5	0xbeef5d41	-0.46750835
6	0x3f342e82	0.70383465
7	0xbec82efb	-0.39098343
8	0xbe6e200c	-0.23254412
9	0x3de08cc8	0.10964352
10	0xbf8046e6	-1.0021636
11	0xbe0c7d31	-0.13719632
12	0xbe63475c	-0.2219519
13	0xbe869ed7	-0.2629306
14	0xbee31e9e	-0.44359297
15	0x3f83b5e0	1.0289879
16	0xbe9c8f04	-0.30577862
17	0x3f5ce66c	0.86289096
18	0xbefaa3bb	-0.4895304
19	0x3d27e970	0.040994108
20	0x3e2920d8	0.16516435
21	0x3f3c408a	0.7353598
22	0xbf80b264	-1.005444
23	0xbf274f0f	-0.6535501
24	0xbdfbe1aa	-0.122989014
25	0xbeaf33bc	-0.34219158
26	0xbf08e2b3	-0.53470916
27	0xbe01ac94	-0.1266349
28	0xbf10a7bf	-0.5650596
29	0x3f0725b3	0.527919
30	0xbe3972a3	-0.18110137
31	0x3de2b5e8	0.11069852
32	0xbe590584	-0.2119351
33	0x3f43b8fd	0.76454145
34	0xbf64821f	-0.8926105
35	0x3d2db29a	0.042406656
36	0x3f4d26ca	0.8013731
37	0xbd9e38d0	-0.0772568
38	0x3d297410	0.04137045
39	0xbe8784da	-0.26468545
40	0xbf80cafd	-1.0061947
41	0xbec192e6	-0.37807387
42	0xbf3fe0be	-0.74952304
43	0x3de1be63	0.110226415
44	0xbea422fe	-0.32057947
45	0xbf2bb253	-0.67068976
46	0x3ed081c6	0.4072401
47	0xbe2a1fd7	-0.16613708
48	0xbf0ecb5c	-0.5577905
49	0x3f48617e	0.7827376
50	0xbd86a289	-0.0657397
51	0xbec16fd4	-0.3778063
52	0xbf6357fc	-0.8880613
53	0xbf0cf0c1	-0.5505486
54	0x3e0979a1	0.13425304
55	0xbe97915c	-0.29603088
56	0xbefae577	-0.49003193
57	0xbe8596c2	-0.26091582
58	0x3ea09571	0.31364015
59	0xbc2f1aab	-0.0106875105
60	0xbee4c6ed	-0.44683018
61	0x3e5cbed4	0.2155717
62	0xbf44fc18	-0.76947165
63	0x3e7add68	0.24498522
64	0xbe8fb9b4	-0.28071368
65	0xbec5d4fa	-0.3863905
66	0x3f2b988e	0.67029655
67	0x3f2658dd	0.64979345
68	0xbf1043e0	-0.5635357
69	0x3f380a07	0.718903
70	0x3f043a8d	0.5165184
71	0xbecfd0a5	-0.4058887
72	0x3eee1edf	0.46507928
73	0xbea7bbf3	-0.3276058
74	0xbf0c7b79	-0.54875904
75	0xbdd6e90c	-0.10493669
76	0xbe9d11e8	-0.30677724
77	0xbe89971d	-0.26873103
78	0xbf4c5aec	-0.79826236
79	0x3e82ab1e	0.25521177
80	0xbf56f960	-0.83974266
81	0xbf65cd2f	-0.8976621
82	0x3f813f20	1.0097389
83	0x3f108b56	0.5646261
84	0x3f29131f	0.660448
85	0xbe759c38	-0.23985374
86	0x3e86e8b0	0.263494
87	0x3f381931	0.7191344
88	0xbf80bfd8	-1.0058546
89	0xbef85ccd	-0.485083
90	0x3e01b844	0.12667948
91	0xbf13cb30	-0.57731915
92	0x3de852b0	0.113438964
93	0xbf52ee9a	-0.8239533
94	0xbddc2aba	-0.10750337
95	0xbf3e1362	-0.74248326
96	0xbd64b6c7	-0.055838373
97	0xbf5e5225	-0.8684409
98	0x3f098520	0.5371876
99	0xbf270d95	-0.652551
100	0xbeb646fe	-0.35601038
101	0x3e46f36c	0.19428796
102	0xbf2b9e9c	-0.67038894
103	0x3e270c7c	0.16313356
104	0x3e6f275c	0.23354858
105	0xbf4b666f	-0.79453176
106	0xbe1212d0	-0.14264989
107	0xbe3842da	-0.17994252
108	0x3dc6538c	0.09683904
109	0xbe3468de	-0.17618129
110	0xbf3efebe	-0.74607456
111	0xbea76247	-0.32692167
112	0xbf341a40	-0.70352554
113	0x3f524cd3	0.82148474
114	0x3f605238	0.87625456
115	0x3e5f5d25	0.21812876
116	0xbd12c082	-0.03582812
117	0xbe37276e	-0.17886135
118	0x3f7dbf67	0.9912018
119	0x3ea85ae0	0.32881832
120	0xbed521f9	-0.41627482
121	0xbe28dc0b	-0.1649019
122	0x3e0a94d0	0.1353333
123	0xbea17f46	-0.31542414
124	0x3e514f2e	0.20440361
125	0x3ef1f768	0.47259068
126	0x3e8554e4	0.2604133
127	0x3cf775b7	0.030207498

fc2.weight f4 [128, 128]
0	0x3ca3cd70	0.019995421
1	0x3da8cfa3	0.082427286
2	0xbc38a9a0	-0.0112709105
3	0xbac1b940	-0.001477994
4	0xbcda2a24	-0.026631422
5	0xbc85ac84	-0.016317613
6	0x3d5db586	0.054128192
7	0xbd9af0cd	-0.0756546
8	0xbd16300f	-0.036666926
9	0xbc4a8700	-0.012361288
10	0x3da5037d	0.08057306
11	0xbc37a2d8	-0.011208259
12	0x3cdce240	0.026963353
13	0x3d563c06	0.052303337
14	0x3c9bf41c	0.019037299
15	0xbd12a326	-0.03580012
16	0xbd0ecd4c	-0.034863755
17	0x3c31b500	0.010846376
18	0x3dade3cb	0.08490714
19	0xbd91e20a	-0.07123192
20	0x3d71019a	0.058839418
21	0xbda3f292	-0.08005251
22	0xbd011095	-0.031509954
23	0xbb3cf5c0	-0.0028833002
24	0x3d0ec936	0.03485986
25	0x3ae12940	0.0017178431
26	0x3d976cb5	0.07393781
27	0xbdacfbf4	-0.08446494
28	0x3d8fa447	0.07013755
29	0x3d101862	0.035179503
30	0x3d5b7dba	0.0535867
31	0x3d4f4b82	0.05060912
32	0xbcea1758	-0.028575584
33	0xbcc40c68	-0.023931697
34	0xbc820c24	-0.01587493
35	0x3d76819e	0.060182206
36	0xbd0d976e	-0.034568243
37	0x3c6b3598	0.014356039
38	0xbb7b1520	-0.0038312152
39	0xbd0a4213	-0.03375442
40	0xbda443d7	-0.08020752
41	0xbd97c1ca	-0.07410009
42	0x3c4f3d48	0.012648888
43	0x3d8b2405	0.067939796
44	0xbd29fac9	-0.041498933
45	0xbd41fc3b	-0.047359686
46	0x3cf63068	0.030052379
47	0xbd990b13	-0.07472815
48	0xbc30d228	-0.010792293
49	0x3d4768ae	0.048683815
50	0x3d4e5d46	0.05038192
51	0xbd854b29	-0.06508476
52	0x3d2dedda	0.04246316
53	0x3d837c61	0.06420208
54	0x3c771f60	0.015083164
55	0x3cef190c	0.029186748
56	0xbda73beb	-0.08165725
57	0x3b7e6840	0.0038819462
58	0xbdacc946	-0.08436827
59	0x3c234bc0	0.009966791
60	0x3c033930	0.00800924
61	0x3d76e87e	0.060280316
62	0xbd983c3c	-0.07433364
63	0xbd6a3800	-0.057182312
64	0x3c70ca90	0.014696732
65	0x3ac78b80	0.0015224069
66	0x3be2aae0	0.0069173425
67	0x3c775588	0.015096076
68	0xbcd4cb48	-0.025975838
69	0xbd8f6922	-0.07002474
70	0xbd85801f	-0.06518578
71	0x3d1eebc2	0.038799055
72	0x3c33e3f8	0.010979645
73	0x3d58142a	0.052753605
74	0x3cfd7b2c	0.030942522
75	0xbd886444	-0.06659749
76	0x3cd6803c	0.026184194
77	0xbd086a5e	-0.033304565
78	0xbda1858b	-0.078867994
79	0xbcdbc56a	-0.026827533
80	0xbcfca556	-0.030840557
81	0xbb723120	-0.003695555
82	0x3db35fcd	0.08758507
83	0xbd645b5e	-0.055751197
84	0x3d90d631	0.07072104
85	0xbd36a400	-0.044589996
86	0x3aeb72c0	0.0017963275
87	0xbd8407fc	-0.064468354
88	0x3d9f44ff	0.07776832
89	0xbd84acca	-0.064782694
90	0x3d77268e	0.060339503
91	0xbd60c6d0	-0.054877102
92	0x3d35f7c6	0.04442575
93	0x3a694800	0.00088989735
94	0x3c82a238	0.015946493
95	0xbd10d590	-0.03535992
96	0xbd5ca3a8	-0.053867012
97	0xbcb0c704	-0.021579273
98	0x3daaf3a7	0.08347254
99	0x3da03d03	0.07824137
100	0x3d99dc01	0.075126655
101	0xbd163cf1	-0.036679212
102	0x3d52078a	0.05127672
103	0xbc333580	-0.010938048
104	0xbce60ea2	-0.02808315
105	0xbd3d2668	-0.046179205
106	0x3c1b53e0	0.009480447
107	0xbccffb54	-0.025388397
108	0xbca90158	-0.020630524
109	0xbd010a98	-0.031504244
110	0xbd732bea	-0.05936805
111	0x3db3dff3	0.08782949
112	0xbd4a602d	-0.049408127
113	0x3d902c67	0.07039719
114	0xbbbb3a40	-0.005713731
115	0xbd95920e	-0.07303248
116	0x3d178bee	0.03699868
117	0x3dabac8f	0.08382522
118	0xbd0593cb	-0.03261165
119	0x3a556180	0.0008139834
120	0xbd97e89d	-0.07417414
121	0xbd335ce2	-0.04378975
122	0x3d8757e9	0.066085644
123	0x3d5e1f06	0.054228805
124	0xbc0248b8	-0.007951908
125	0xbda9da1f	-0.082935564
126	0xbd31d19d	-0.043412793
127	0xbd8ac6d8	-0.06776208
128	0xbc954e5b	-0.01822584
129	0xbddbaf3b	-0.10726782
130	0xb9e4cf00	-0.00043641776
131	0xbd4cb6d2	-0.04997904
132	0xbcd63230	-0.026146978
133	0xbcc186aa	-0.023623783
134	0x3d28587f	0.04110002
135	0x3d7d3c2c	0.061824962
136	0xbd40d5f4	-0.04707904
137	0xbb8b1fa0	-0.0042457134
138	0x3c65d237	0.01402717
139	0x3a4c850e	0.0007801809
140	0xbc3a4578	-0.011369102
141	0x3d4308ea	0.047615923
142	0xbcbd3f04	-0.023101337
143	0xbdcaa4a3	-0.09894683
144	0xbcdc4254	-0.026887096
145	0xbd177257	-0.036974277
146	0x3c496572	0.012292253
147	0xbc2e79a0	-0.010649115
148	0xbcb79dc4	-0.022414096
149	0x3ca63311	0.020288022
150	0x3d52790e	0.051384978
151	0xbd4de276	-0.050264798
152	0x3b45920d	0.0030146868
153	0x3d40dd78	0.04708621
154	0xbd6cdb6a	-0.057826437
155	0x3bbb60d0	0.005718328
156	0x3d6deaa6	0.058085106
157	0xba903236	-0.0011001292
158	0x3cf20caf	0.029547064
159	0x3da0a995	0.07844845
160	0x3df421f5	0.11920539
161	0x3b49826b	0.0030747901
162	0x3d8f666c	0.07001957
163	0xbd57b07b	-0.05265854
164	0xbdc04417	-0.09387987
165	0x3d83ad0b	0.0642949
166	0xbd2c200b	-0.042022746
167	0x3cd00dfc	0.025397293
168	0xbdb7dd92	-0.08977808
169	0xbcd55794	-0.026042737
170	0x3c870d96	0.01648597
171	0xbdb343c5	-0.087531604
172	0xbdff067a	-0.12452407
173	0xbd573652	-0.05254204
174	0xbb873a70	-0.0041268393
175	0xbd874c38	-0.066063344
176	0xbda40884	-0.08009437
177	0xbc5cfc14	-0.0134878345
178	0xbe11d924	-0.14242989
179	0x3bdf40e0	0.0068131536
180	0x3c253535	0.010083486
181	0xbbe37638	-0.006941583
182	0xbd48d7c1	-0.049033884
183	0x3d8f5b8e	0.069998845
184	0x3cdcbd92	0.026945863
185	0x3d6f5dfa	0.058439232
186	0x3ca601ac	0.02026447
187	0x3ccc9380	0.024972677
188	0x3d1e0d84	0.03858711
189	0xbd935134	-0.07193223
190	0xbbebc65e	-0.007195278
191	0xbd5e4b83	-0.054271232
192	0x3b16c460	0.0023005232
193	0x3b8329e7	0.004002798
194	0xbb77848a	-0.0037768208
195	0x3d01a53e	0.031651728
196	0x3d61248a	0.054966487
197	0xbb2483cf	-0.0025102978
198	0xbd008b0a	-0.031382598
199	0xbd839c92	-0.06426348
200	0xbd8580ba	-0.06518693
201	0xbdae7c7f	-0.085198395
202	0xbda1655f	-0.07880663
203	0x3cf22b78	0.029561743
204	0x3b5a2361	0.0033285248
205	0xbe0079e4	-0.12546498
206	0xbc807a89	-0.01568343
207	0x3d710bc6	0.05884912
208	0xbdbbb5b3	-0.09165516
209	0xbbc87ed3	-0.0061186343
210	0xbc55c3ed	-0.013047201
211	0x3cf35700	0.02970457
212	0xbce8c7d2	-0.028415594
213	0x3d668bc6	0.056285642
214	0x3cc96a28	0.024586752
215	0x3ce8bc7f	0.028410194
216	0x3d50ec43	0.051006567
217	0xbcb6161a	-0.022227336
218	0x3d31be76	0.04339453
219	0xbd7adc74	-0.061245397
220	0x3d4144e2	0.047184832
221	0xbc84dbdf	-0.016218124
222	0xbd8c8ebf	-0.06863164
223	0xbd07d6cc	-0.03316383
224	0xbc2bc5b5	-0.010484149
225	0x3d79b182	0.0609603
226	0x3ced6128	0.028976992
227	0x3c4b0aeb	0.01239274
228	0xbb719f40	-0.0036868602
229	0xbcca6e88	-0.024710909
230	0xbcfb133e	-0.030648824
231	0xbd7a4604	-0.06110193
232	0x3bf73bb0	0.007544957
233	0x3c6a454f	0.014298751
234	0xbd8b7c2e	-0.06810795
235	0xbce73ad4	-0.028226294
236	0xbd88f9ed	-0.066882946
237	0xbd8ff524	-0.07029179
238	0xbd3b48ff	-0.04572391
239	0xbc7dba60	-0.01548633
240	0xbc804354	-0.015657105
241	0xbd35120a	-0.044206657
242	0xbc87f6a7	-0.016597105
243	0xbd938f02	-0.07205011
244	0x3b399920	0.002832003
245	0xbd4fd69d	-0.05074178
246	0x3c317356	0.010830721
247	0xbcf3da04	-0.029767044
248	0x3ca96d29	0.020681934
249	0x3c8cd140	0.017189622
250	0xbc393af0	-0.011305556
251	0x3d2d20cd	0.04226761
252	0x3c71dd48	0.01476223
253	0x3d342e6e	0.04398959
254	0xbcd87c1b	-0.026426366
255	0xbd911b15	-0.070852436

fc2.bias f4 [128]
0	0xbd58a213	-0.05288894
1	0xbc635b16	-0.013876697
2	0xbd15ff7a	-0.036620595
3	0x3ba70543	0.005097063
4	0xbd844414	-0.06458297
5	0x3d5a40b2	0.053284355
6	0xbd66ceed	-0.056349684
7	0x3d22172b	0.039572876
8	0x3e4e8e9b	0.20171587
9	0xbc654e30	-0.013995692
10	0x3e39e3c7	0.18153296
11	0xbddcba4c	-0.10777721
12	0xbc87ae45	-0.01656259
13	0xbee7ed09	-0.4529803
14	0x3e4ab124	0.19794136
15	0xbd14d4b0	-0.036335647
16	0xbea97a68	-0.331012
17	0xbce8e19c	-0.028427891
18	0xbf020848	-0.50793886
19	0x3c45e2d4	0.012078006
20	0xbe0aff66	-0.1357399
21	0xbeb4a2b8	-0.35280395
22	0x3e97f07d	0.29675665
23	0xbeabc937	-0.33551952
24	0x3d3b62a3	0.045748364
25	0xbe85ad72	-0.2610889
26	0x3d2ed173	0.042680215
27	0x3d8257c9	0.063644
28	0xbd974875	-0.07386867
29	0x3d99ce5a	0.075100616
30	0x3e79f104	0.24408346
31	0x3aa5d35d	0.0012651492
32	0x3e098162	0.13428262
33	0xb8b64c7e	-8.692684e-05
34	0xbdcb87b6	-0.09937994
35	0x3d27daf3	0.04098029
36	0x3bfdddcd	0.007747388
37	0xbd803417	-0.06259935
38	0x3caaf2ec	0.020867787
39	0xbe5b2482	-0.21400645
40	0xbcbdc078	-0.023163065
41	0x3d23ad0a	0.039959945
42	0x3cf5f83e	0.030025598
43	0x3daaca03	0.08339312
44	0xbe4fad00	-0.20280838
45	0x3cdd0fee	0.026985135
46	0xbcd05c70	-0.025434703
47	0xb95f525d	-0.0002129762
48	0xbe18cefe	-0.14922711
49	0xbe1a9df4	-0.15099317
50	0xbd17bd88	-0.037045985
51	0x3b47e820	0.0030503348
52	0xbcc9e010	-0.024642974
53	0x3e0ba0ef	0.1363561
54	0xbdf1ddd0	-0.118098855
55	0xbd8b50a0	-0.068024874
56	0xbd078818	-0.033088773
57	0xbe8457fd	-0.2584838
58	0xbd819179	-0.06326575
59	0xbdb701e7	-0.0893591
60	0x3d5df18c	0.054185435
61	0xbec0ecd4	-0.37680686
62	0x3d6d80a3	0.057984006
63	0x3bd222ee	0.0064128553
64	0xbe201712	-0.156338
65	0xbe06f55f	-0.13179539
66	0x3d1a2ca3	0.037640225
67	0xbc844448	-0.01614584
68	0xbd1fbcff	-0.0389986
69	0xbd8d7ecc	-0.0690895
70	0x3cbb421c	0.022858672
71	0xbdea7695	-0.11448399
72	0xbcac04f3	-0.020998454
73	0x3d7c9e9c	0.0616747
74	0xbea79c42	-0.32736403
75	0xbda37d90	-0.079829335
76	0x3d8b57f7	0.06803887
77	0xbd852378	-0.06500906
78	0xbdafcf0c	-0.08584413
79	0x3c3224f0	0.010873064
80	0xbd46f405	-0.04857256
81	0x3e919a7d	0.28438178
82	0x3d20b59a	0.03923569
83	0x3d54f1ea	0.05198852
84	0xbcb8220d	-0.022477174
85	0x3d581724	0.052756444
86	0xbdad76f5	-0.08469955
87	0x3dfd8054	0.12377992
88	0xbcf1c1f3	-0.029511428
89	0x3e79ba00	0.2438736
90	0xbd1a52ef	-0.037676748
91	0x3da19fad	0.07891784
92	0xbe9c9a85	-0.3058664
93	0xba9ff01f	-0.0012202299
94	0x3d541649	0.051779065
95	0x3e099c39	0.134385
96	0x3c810a74	0.015752055
97	0x3b726514	0.0036986517
98	0xbec882d1	-0.39162305
99	0xbd91d05a	-0.07119818
100	0xbccd9644	-0.025096066
101	0x3e05cb52	0.13065842
102	0x3d99b495	0.075051464
103	0xbe430f8a	-0.19048896
104	0x3c80ec08	0.015737548
105	0xbdc0292a	-0.093828514
106	0xbeaf66cd	-0.34258118
107	0xbeadb736	-0.3392884
108	0xbd65e9e9	-0.056131277
109	0xbd27ea0b	-0.040994685
110	0x3b64c699	0.0034908412
111	0xbe54dade	-0.20786616
112	0x3ce9e484	0.028551348
113	0x3d874601	0.06605149
114	0x3e51c8e9	0.20486797
115	0xbd266437	-0.040622916
116	0x3c167340	0.009182751
117	0xbda22595	-0.079173245
118	0x3e22017c	0.15820879
119	0xbd1dfd2e	-0.03857153
120	0xbbf3d8a0	-0.007441595
121	0x3d316175	0.043305833
122	0xbebe069b	-0.37114415
123	0xbe1b9b17	-0.15195881
124	0xbecda222	-0.4016276
125	0xbd578221	-0.052614335
126	0xbc616e46	-0.013759201
127	0x3ccd74a3	0.02508003

fc3.weight f4 [2, 128]
0	0x3d9858db	0.07438823
1	0xbd388ab9	-0.04505417
2	0xbd15a6f5	-0.036536176
3	0xbd011d30	-0.031521976
4	0xbcf62062	-0.030044738
5	0xbd29b09c	-0.041428193
6	0x3da5e877	0.0810098
7	0x3c49b9b2	0.01231234
8	0x3be88431	0.0070958366
9	0x3d7cbcba	0.06170342
10	0xbd5fe44c	-0.05466108
11	0xbd8e2c31	-0.069420226
12	0x3a9b0397	0.0011826631
13	0x3dbe1f0b	0.09283265
14	0xbd35d7e2	-0.044395335
15	0xbc440376	-0.011963716
16	0x3db1d1d0	0.08682597
17	0xbd738227	-0.059450295
18	0x3e85ffdf	0.26171777
19	0xbd63be70	-0.055601537
20	0x3b3cce67	0.0028809549
21	0x3d3bef2c	0.04588239
22	0xbc105b68	-0.008810855
23	0x3cd71869	0.026256757
24	0xbcd7fa68	-0.02636452
25	0x3d28f710	0.041251242
26	0x3ad5e964	0.0016320166
27	0x3da9e075	0.08294765
28	0xbd5719b5	-0.05251475
29	0x3c4cf87c	0.012510415
30	0x3b2985a8	0.002586702
31	0x3ceaaaf0	0.028645962
32	0x3b36590b	0.002782407
33	0xbaad5a0e	-0.0013225691
34	0xbda0d95e	-0.078539595
35	0xbb0b97f5	-0.002130029
36	0xbca9131e	-0.020638999
37	0xbca39ca8	-0.01997216
38	0x3cb70308	0.022340313
39	0xbb5ea997	-0.0033975595
40	0x3cabd6b0	0.020976394
41	0x3a863ddc	0.0010241824
42	0xba04c8ee	-0.0005065341
43	0xbce21af6	-0.027600747
44	0x3b25a73f	0.0025276688
45	0xbcea8e13	-0.0286322
46	0xbca523b2	-0.020158622
47	0xbb936da6	-0.004499155
48	0xbbb9f4c3	-0.00567493
49	0x3d64dcd2	0.055874653
50	0x3bb369ac	0.0054752436
51	0x3d5d5d56	0.05404409
52	0x3dc55659	0.0963561
53	0xbc06d27e	-0.008228896
54	0x3aaf22fd	0.0013361868
55	0x3c7579f8	0.014982693
56	0xbd414076	-0.047180615
57	0x3d0734c5	0.03300931
58	0xbcd4c66a	-0.025973517
59	0xbd32f356	-0.043689094
60	0xbcbdfd2c	-0.02319201
61	0x3d337ea0	0.04382193
62	0xb9a0df5e	-0.00030684
63	0xbb4ead76	-0.0031536496
64	0xbd340691	-0.043951575
65	0xbb28e4f8	-0.0025771242
66	0x3d304792	0.043037005
67	0x3d63df2f	0.055632766
68	0x3c71fa90	0.014769211
69	0x3d0637e4	0.032768145
70	0x3bf87bc0	0.0075831115
71	0xbcaa70e1	-0.020805778
72	0xbc313565	-0.010815953
73	0xbd333119	-0.043747995
74	0x3d190887	0.037361648
75	0xbcb00a8c	-0.021489404
76	0xbd90d842	-0.07072498
77	0x3c9f18cb	0.019421002
78	0x3cdf9b08	0.027295604
79	0x3d35848e	0.044315867
80	0xbce324b6	-0.027727466
81	0xbd1da70b	-0.038489383
82	0xbbd4788f	-0.0064840983
83	0xbc57aa42	-0.013163151
84	0x3da3c031	0.07995642
85	0xbb24e0f9	-0.0025158508
86	0xbbaf8d8d	-0.0053574503
87	0xbbe3367f	-0.0069339867
88	0xbd1d9978	-0.038476437
89	0x3cb0fdcd	0.021605397
90	0x3af5e618	0.001876059
91	0x3cac6007	0.021041883
92	0x3d85dd8b	0.065363966
93	0x3d462f14	0.04838474
94	0x3d936961	0.07197834
95	0xbccaeb2b	-0.02477034
96	0x3b993318	0.0046752803
97	0xbd856bc8	-0.06514698
98	0x3d01a980	0.03165579
99	0xb9397b4f	-0.00017688911
100	0x3da3ed7f	0.08004283
101	0x3ab28a85	0.0013621604
102	0x3bdc9610	0.006731756
103	0x3d4e1468	0.05031243
104	0x3d07c0c8	0.033142835
105	0xbc11a23b	-0.008888776
106	0x3d059622	0.03261388
107	0x3d3cfca0	0.04613936
108	0xbc531079	-0.012882345
109	0xba127daf	-0.00055881863
110	0xbb218e56	-0.002465149
111	0x3be6fb1d	0.007048978
112	0x3cec91cd	0.028878117
113	0x3cc395f8	0.023875222
114	0xbc989649	-0.018626349
115	0xbd95b2ec	-0.07309517
116	0x3b721f30	0.0036944859
117	0x3c1368e8	0.00899718
118	0x3cc7aa1e	0.02437311
119	0xbbeea150	-0.0072824135
120	0xbd0709d5	-0.03296836
121	0xbcf79c18	-0.030225798
122	0x3e38ccfd	0.18046947
123	0x3d5a4ddd	0.053296912
124	0x3d4b8542	0.04968763
125	0x3db33fdf	0.08752417
126	0xbd755006	-0.05989077
127	0xbd0f8c41	-0.035045866
128	0xbb9c2c80	-0.004766047
129	0xbd03ba89	-0.032160316
130	0x3d06d0e4	0.032914057
131	0x3bb1141b	0.005404008
132	0xbd0c5ae7	-0.03426638
133	0x3bc42090	0.005985327
134	0xbd72b972	-0.059258886
135	0x3ad40570	0.0016175937
136	0x3c8aafb7	0.01692949
137	0xbd17d102	-0.03706456
138	0xbd02b8c2	-0.03191448
139	0xbc34b79f	-0.011030107
140	0x3b1a6709	0.002355995
141	0x3d661ca3	0.056179654
142	0x3bc0771b	0.0058735735
143	0x3c03afe0	0.008037537
144	0x3d67c3e3	0.056583297
145	0x3d2f5dc6	0.04281404
146	0x3e4739ee	0.19455692
147	0xbda059d3	-0.078296326
148	0xbd4efb7a	-0.050532795
149	0x3d561845	0.05226924
150	0x3ac2e074	0.0014867918
151	0x3d078e16	0.033094488
152	0x3d56129c	0.05226384
153	0x3cd5fd7d	0.02612185
154	0xbd2ebfa6	-0.04266324
155	0x3da5ada3	0.08089759
156	0xbd7cc3ac	-0.061710045
157	0x3d559129	0.05214039
158	0xbcc5d587	-0.02414967
159	0x3daff4a1	0.08591581
160	0xbda6ae56	-0.08138721
161	0x3bce6920	0.006299153
162	0xbd01c84a	-0.03168515
163	0x3c3958e9	0.011312702
164	0x3c0f1f13	0.008735436
165	0x3aa8ee40	0.0012888387
166	0xbd6bc645	-0.05756213
167	0xbd173476	-0.036915265
168	0xbdad3bc5	-0.08458666
169	0x3d257cf2	0.04040236
170	0xbd5bcc97	-0.05366191
171	0x3d2818e6	0.04103937
172	0xbc6df94d	-0.01452477
173	0x3d4b965d	0.049703944
174	0xbce88bf2	-0.028387044
175	0xbc129310	-0.008946195
176	0xbcb32e91	-0.02187279
177	0x3db489dc	0.08815357
178	0xbc98f33c	-0.01867067
179	0x3d341a76	0.043970548
180	0xbd76ac29	-0.06022278
181	0xbc05e489	-0.008172163
182	0xbcd6fa44	-0.026242383
183	0x3c7d9ff8	0.015480034
184	0xbd88d034	-0.066803366
185	0xbd3455f9	-0.044027302
186	0xbd3445c9	-0.044011865
187	0xbd7067ec	-0.058692858
188	0x3da3df86	0.08001618
189	0xbe1b4faa	-0.15167108
190	0xbc8d0707	-0.017215265
191	0x3d44d831	0.04805774
192	0xbd1ca45f	-0.038242694
193	0x3c548557	0.012971244
194	0xbcfb234a	-0.030656476
195	0x3d840186	0.06445603
196	0x3d8f1667	0.06986695
197	0xbb05b380	-0.002040118
198	0x3cbbadec	0.02291008
199	0x3c179a4e	0.009253098
200	0x3c9399b7	0.018017633
201	0xbc2f8759	-0.010713422
202	0x3bbeb97e	0.0058204522
203	0x3d4ec1ee	0.050477915
204	0xbc7e74c0	-0.015530765
205	0xbc2e811e	-0.010650901
206	0xbd3bd490	-0.045857012
207	0x3d1f1a4e	0.038843445
208	0xbd84957f	-0.064738266
209	0xbb2b6dd7	-0.0026158
210	0x3d6040f7	0.054749455
211	0x3cf44170	0.02981636
212	0x3d64fc7a	0.055904843
213	0x3d2d5b5c	0.042323455
214	0xbb7fbd09	-0.0039022586
215	0x3d21c7d7	0.039497223
216	0xbc59c2ce	-0.013291074
217	0x3c0a43e4	0.008439038
218	0x3bcef7c9	0.0063161594
219	0x3d372bb6	0.04471942
220	0x3cf46916	0.029835265
221	0xbd41fe7c	-0.047361836
222	0xbc1d7e48	-0.009612627
223	0xbb87c06b	-0.004142811
224	0x3d054c57	0.032543506
225	0xbcfcff82	-0.030883554
226	0xbe1de22c	-0.15418309
227	0x3c9fa25a	0.019486595
228	0xbd39f68f	-0.045401152
229	0xbd0d933a	-0.034564234
230	0x3d94d20b	0.07266625
231	0xbb67d596	-0.003537511
232	0xbd99159d	-0.074748255
233	0xbc0023ad	-0.007821006
234	0xbdad2222	-0.08453776
235	0xbdb94c1a	-0.09047718
236	0x3d5dce86	0.054152034
237	0x3be9fe66	0.0071409224
238	0x3d097ce0	0.033566356
239	0xbcca5bc8	-0.024701968
240	0x3d8428dc	0.06453106
241	0x3cd65a0c	0.026165985
242	0x3cc4239f	0.023942767
243	0x3c83bd93	0.016081607
244	0x3cefdb5a	0.0292794
245	0x3d6a930a	0.057269134
246	0xba94168b	-0.0011298222
247	0x3d28b53a	0.041188456
248	0x3d68f77a	0.056876637
249	0xbd6aa1d2	-0.05728323
250	0x3e104383	0.14088254
251	0x3ca52799	0.020160483
252	0xbdfb3d74	-0.12267581
253	0xbca17014	-0.019706763
254	0x3bbb3456	0.005713026
255	0xbd384d21	-0.04499543

fc3.bias f4 [2]
0	0xbebe3df1	-0.37156633
1	0x3e58d57a	0.21175185
